meinNetz.pt (torch, 2975 bytes, 4 tensors)

weight f4 [10, 10]
0.22243586 0.20069656 0.19985625 -0.21664223 0.015379667 -0.15157671 0.14495334 0.18514934
-0.23875204 -0.22581334 0.14191794 -0.2426224 -0.16569142 0.22896358 0.19484079 -0.18974036
-0.18208633 -0.09507094 0.061803877 -0.24608731 -0.08667368 0.22652844 -0.19001412 -0.025479496
0.028866738 -0.16206159 -0.13235167 -0.21741575 -0.2515199 -0.29578993 0.31596607 -0.122565866
-0.30812848 0.22381875 0.017870856 -0.11680034 -0.062856495 -0.03688532 0.010583206 -0.16359417
0.22861817 -0.22788706 -0.17591944 -0.11712973 -0.21967205 0.035764784 -0.20075068 0.12463793
-0.01819852 -0.034726888 0.37787232 0.2479882 -0.06308478 0.26570365 0.40956894 -0.19708729
-0.23287767 0.11002052 0.0974619 -0.16352907 0.026687235 0.29862568 0.025479525 -0.28227875
-0.15742697 -0.16528092 0.059410244 -0.0326252 0.15392393 -0.2197949 -0.09219631 -0.26835847
0.0914717 0.20730868 0.4394712 -0.22898893 -0.14203693 -0.14912349 0.3223831 0.2724005
-0.08046722 -0.21129319 -0.23841672 -0.28217444 0.24279243 -0.283366 0.08383429 -0.30224288
0.17592232 -0.0011799819 0.41196054 0.029351532 0.10401967 0.12240344 -0.08927336 -0.19377857
0.16455138 0.29366508 0.38039634 0.3130327
00000000: 3ac6 633e 6683 4d3e 1ea7 4c3e 76d7 5dbe
00000010: 00fb 7b3c ed36 1bbe a66e 143e ca97 3d3e
00000020: 6a7b 74be 9d3b 67be f052 113e 0272 78be
00000030: 03ab 29be 6e75 6a3e 5884 473e 4c4b 42be
00000040: d774 3abe 8eb4 c2bd 1026 7d3d 50fe 7bbe
00000050: f881 b1bd 12f7 673e 1093 42be 60ba d0bc
00000060: f079 ec3c 79f3 25be 3287 07be 3ca2 5ebe
00000070: 37c7 80be c771 97be 4ec6 a13e d003 fbbd
00000080: 04c3 9dbe be30 653e e765 923c 0435 efbd
00000090: e8ba 80bd 1015 17bd 2f65 2d3c 3b85 27be
000000a0: e21a 6a3e 3a5b 69be 3a24 34be b6e1 efbd
000000b0: b6f1 60be 187e 123d 9691 4dbe 2c42 ff3d
000000c0: 1015 95bc c83d 0ebd 7b78 c13e 9ef0 7d3e
000000d0: 9832 81bd 4f0a 883e 05b3 d13e 40d1 49be
000000e0: 7c77 6ebe 7052 e13d 1b9a c73d 2a74 27be
000000f0: 309f da3c 77e5 983e 70ba d03c d786 90be
00000100: 8934 21be 673f 29be 2858 733d 00a2 05bd
00000110: 3c9e 1d3e ea11 61be 6bd1 bcbd 4866 89be
00000120: 8455 bb3d ba48 543e 5e02 e13e 137c 6abe
00000130: 2172 11be d4b3 18be 660f a53e 1478 8b3e
00000140: ffcb a4bd 3e5d 58be 8323 74be 2b79 90be
00000150: 949e 783e 5915 91be 50b1 ab3d 94bf 9abe
00000160: fb24 343e 9fa9 9aba 7eec d23e a072 f03c
00000170: 4408 d53d a8ae fa3d f4d4 b6bd e46d 46be
00000180: 2880 283e 455b 963e 4fc3 c23e d245 a03e

bias f4 [10]
0.18075013 -0.16598496 0.0734711 0.1794665 0.019269109 0.44057366 -0.2081945 0.20118243
-0.2874461 -0.0473644
00000000: 9016 393e f6f7 29be 0478 963d 11c6 373e
00000010: 40da 9d3c df92 e13e f030 55be c402 4e3e
00000020: 232c 93be 2c01 42bd

weight f4 [10, 10]
0.1264843 -0.19491164 0.08057964 -0.1595627 -0.28006816 -0.30762455 -0.11470021 0.06789752
0.29838207 0.14071073 0.2736818 -0.084433064 0.14176816 0.34149674 -0.058179885 0.39058936
-0.28129897 0.042883437 0.024814699 0.26690394 -0.012459785 -0.20393528 0.26753607 -0.0023967952
0.19719991 0.17778395 -0.14000833 0.0837153 -0.12712583 0.34351325 0.11043182 -0.19350004
0.30471602 -0.13619716 0.24850091 0.39131606 -0.22637334 0.26033702 0.30622798 -0.017875733
0.21056494 -0.00032809476 0.0064620376 -0.24451704 0.13381746 0.0017230243 0.30184016 -0.048132706
0.08698201 -0.02700737 0.22498211 -0.13036539 -0.29613563 0.039331242 -0.239881 0.1954704
-0.30266625 0.47466275 -0.19734426 0.12381424 -0.13158736 0.0069799135 -0.1375936 0.10690821
0.30079773 0.12334155 -0.0999064 0.28316936 0.2887884 0.10908185 0.14458606 0.07140963
-0.077619776 0.20575185 0.22669396 0.41733736 0.21320489 -0.018893167 0.20415877 0.3575915
0.05750382 0.25972152 -0.0061737597 0.27047828 0.0050989687 0.024167294 0.19273797 -0.226379
0.24784525 0.07612374 0.023762077 -0.291698 0.31056002 0.068424016 -0.16665974 0.10906413
-0.2627599 -0.35065472 0.13395838 0.122185655
00000000: 1a85 013e eb96 47be f006 a53d 6864 23be
00000010: 1865 8fbe f780 9dbe f2e7 eabd db0d 8b3d
00000020: 89c5 983e 7916 103e 0520 8c3e 3eeb acbd
00000030: ac2b 113e a9d8 ae3e 084e 6ebd 54fb c73e
00000040: 6b06 90be 8ba6 2f3d 3248 cb3c a2a7 883e
00000050: 2024 4cbc 69d4 50be 7dfa 883e 8d13 1dbb
00000060: c6ee 493e ff0c 363e 585e 0fbe ed72 ab3d
00000070: 462d 02be f8e0 af3e 142a e23d e024 46be
00000080: bd03 9c3e 4577 0bbe 0677 7e3e 945a c83e
00000090: 6ace 67be e54a 853e eac9 9c3e 2170 92bc
000000a0: 569e 573e 2204 acb9 80bf d33b ad62 7abe
000000b0: 7207 093e 1ad7 e13a cb8a 9a3e cd26 45bd
000000c0: a023 b23d 8f3e ddbc b661 663e 817e 05be
000000d0: 179f 97be cc19 213d 5da3 75be 6429 483e
000000e0: 12f7 9abe ff06 f33e 9d14 4abe 5292 fd3d
000000f0: d6be 06be c2b7 e43b 56e5 0cbe b1f2 da3d
00000100: 2902 9a3e 7f9a fc3d ba9b ccbd 93fb 903e
00000110: 13dc 933e 4e66 df3d 5e0e 143e 363f 923d
00000120: 1ef7 9ebd 9db0 523e 7622 683e 3ead d53e
00000130: 6252 5a3e d8c5 9abc ff0e 513e 3c16 b73e
00000140: 2089 6b3d 38fa 843e 404d cabb 217c 8a3e
00000150: 4015 a73b 7dfa c53c 1a5d 453e e6cf 67be
00000160: 25cb 7d3e c3e6 9b3d b0a8 c23c 7159 95be
00000170: b901 9f3e e421 8c3d daa8 2abe 045d df3d
00000180: 7788 86be 0489 b3be 632c 093e 793c fa3d

bias f4 [10]
0.18618986 0.114295915 0.37211016 0.2988758 0.16297011 0.105896406 0.37443107 0.10599648
0.04722994 0.12448844
00000000: 8ea8 3e3e fa13 ea3d 3985 be3e 4006 993e
00000010: a3e1 263e 37e0 d83d 6eb5 bf3e af14 d93d
00000020: 2e74 413d ccf3 fe3d
